…
span><br><span class="line"><span class="comment">#　模型编译</span></span><br><span class="line">model.<span class="built_in">compile</span>(loss=keras.metrics.categorical_crossentropy, optimizer=keras.optimizers.Adam(), metrics=[<span class="string">&#x27;accuracy&#x27;</span>])</span><br><span class="line">model.summary()</span><br></pre></td></tr></table></figure><pre><code>_________________________________________________________________Layer (type)                 Output Shape              Param #   =================================================================conv2d_5 (Conv2D)            (None, 24, 24, 6)         156       _________________________________________________________________max_pooling2d_4 (MaxPooling2 (None, 12, 12, 6)         0         _________________________________________________________________conv2d_6 (Conv2D)            (None, 8, 8, 16)          2416      _________________________________________________________________max_pooling2d_5 (MaxPooling2 (None, 4, 4, 16)          0         _________________________________________________________________flatten_3 (Flatten)          (None, 256)               0         _________________________________________________________________dense_6 (Dense)              (None, 120)               30840     _________________________________________________________________dense_7 (Dense)              (None, 84)                10164     _________________________________________________________________dense_8 (Dense)              (None, 10)                850       =================================================================Total params: 44,426Trainable params: 44,426Non-trainable params: 0_________________________________________________________________</code></pre><h2 id="AlexNet-模型"><a href="#AlexNet-模型" class="headerlink" title="AlexNet 模型"></a>AlexNet 模型</h2><p>模型架构如下：<br>一共有5个卷积层（Conv2D），8个神经网络层（Conv2D + Dense）</p><figure class="highlight p
…
ax&#x27;</span>))</span><br><span class="line">model.<span class="built_in">compile</span>(loss=<span class="string">&#x27;categorical_crossentropy&#x27;</span>, optimizer=<span class="string">&#x27;sgd&#x27;</span>, metrics=[<span class="string">&#x27;accuracy&#x27;</span>])</span><br><span class="line">model.summary()</span><br></pre></td></tr></table></figure><pre><code>_________________________________________________________________Layer (type)                 Output Shape              Param #   =================================================================conv2d_7 (Conv2D)            (None, 28, 28, 96)        11712     _________________________________________________________________max_pooling2d_6 (MaxPooling2 (None, 13, 13, 96)        0         _________________________________________________________________conv2d_8 (Conv2D)            (None, 13, 13, 256)       614656    _________________________________________________________________max_pooling2d_7 (MaxPooling2 (None, 6, 6, 256)         0         _________________________________________________________________conv2d_9 (Conv2D)            (None, 6, 6, 384)         885120    _________________________________________________________________conv2d_10 (Conv2D)           (None, 6, 6, 384)         1327488   _________________________________________________________________conv2d_11 (Conv2D)           (None, 6, 6, 256)         884992    _________________________________________________________________max_pooling2d_8 (MaxPooling2 (None, 2, 2, 256)         0         _________________________________________________________________flatten_4 (Flatten)          (None, 1024)              0         _________________________________________________________________dense_9 (Dense)              (None, 4096)              4198400   _________________________________________________________________dropout_3 (Dropout)          (None, 4096)              0         _________________________________________________________________dense_10 (Dense)             (None, 4096)              16781312  _________________________________________________________________dropout_4 (Dropout)          (None, 4096)              0         _________________________________________________________________dense_11 (Dense)             (None, 10)                40970     =================================================================Total params: 24,744,650Trainable params: 24,744,650Non-trainable params: 0_________________________________________________________________</code></pre><figure class="highlight python"><table><tr><td class="gutter"><pre><span class="line">1</span><br></pre></td><td class="code"><pre><span class="line"></span><br></pre></td></tr></table></figure>]]></content>
…
